gattrial.pth (torch_old, 24057 bytes, 8 tensors)

weight f4 [20, 40]
0	0x3d703f4d	0.05865412
1	0x3d4c771a	0.04991827
2	0x3e71a705	0.23598869
3	0xbca69bf7	-0.020338042
4	0xbd0a09db	-0.033700805
5	0xbd79c46a	-0.06097833
6	0x3e2142f3	0.15748195
7	0xbdf432d4	-0.11923757
8	0x3dd8171f	0.10551285
9	0xbc011518	-0.007878564
10	0x3e0d53a6	0.1380144
11	0x3de7c364	0.11316565
12	0x3d4e25f3	0.05032916
13	0x3cbe8ef3	0.023261523
14	0x3dbceff7	0.09225457
15	0xbd40836e	-0.04700034
16	0x3e6c9947	0.23105346
17	0xbcb08d97	-0.02155189
18	0x3d6c2a65	0.057657618
19	0xbce10072	-0.027466033
20	0xbd9b4630	-0.075817466
21	0x3ba81341	0.0051292484
22	0xbddf9853	-0.109177254
23	0x3db81bf9	0.0898971
24	0x3d1676e4	0.036734477
25	0xbd29dbc3	-0.041469347
26	0xbd92f15d	-0.07174943
27	0x3d8f1289	0.06985957
28	0x3d83071a	0.06397839
29	0xbc08ca1c	-0.008348968
30	0xbe49ae1d	-0.19695325
31	0x3bbaf839	0.00570586
32	0xbe143e18	-0.14476812
33	0x3dc9e929	0.09858925
34	0x3d07c199	0.033143613
35	0x3e081943	0.13290887
36	0x3e074683	0.13210492
37	0xbe29daca	-0.16587368
38	0xbdb8303d	-0.08993576
39	0x3cd690d2	0.026192103
40	0xbd110b45	-0.035411138
41	0x3d91fcba	0.07128282
42	0x3de957f7	0.11393731
43	0x3df1cd36	0.11806719
44	0x3baf06cd	0.005341387
45	0x3e3ac840	0.18240452
46	0xbe23f28b	-0.16010492
47	0xbe59a7cd	-0.21255417
48	0xbd21099f	-0.039315816
49	0x3cd4e0e6	0.025986146
50	0xbc6ebcb8	-0.014571361
51	0xbe0821d1	-0.1329415
52	0x3b12104c	0.0022287546
53	0xbcc2a93b	-0.023762336
54	0xbe12617b	-0.14294998
55	0xbd15902f	-0.036514457
56	0xbdd19b6d	-0.10234723
57	0x3cc9b628	0.024622992
58	0xbd55ebbf	-0.052226778
59	0x3d6c2044	0.05764796
60	0x3ca80394	0.020509519
61	0x3e01d3cb	0.12678449
62	0xb7176da0	-9.025825e-06
63	0xbd8d5024	-0.06900051
64	0x3cddc02c	0.027069174
65	0xbe168a3a	-0.14701167
66	0x3c9e667f	0.019335983
67	0x3df44ef8	0.119291246
68	0x3e0c5be1	0.13706924
69	0x3d497eec	0.049193308
70	0xbd7d64f4	-0.061863855
71	0xbd8c0503	-0.068368934
72	0x3c9b9f42	0.018996838
73	0xbcc38ec5	-0.023871789
74	0xbc215354	-0.009846527
75	0x3bb22fe8	0.00543784
76	0xbe1b62be	-0.15174386
77	0x3dff3123	0.12460544
78	0x3e293315	0.16523392
79	0x3db13ac1	0.086537845
80	0xbe3e6030	-0.1859138
81	0x3e1114c5	0.14168079
82	0xbdbe4640	-0.09290743
83	0x3db25542	0.08707668
84	0x3da3728c	0.079808325
85	0x3e0ee66b	0.13955085
86	0x3cca1f4e	0.02467313
87	0x3d940e62	0.07229306
88	0xbe058258	-0.13038003
89	0xbccaf847	-0.024776591
90	0xbbd267fd	-0.006421088
91	0x3d58c8ff	0.05292606
92	0xbe3d4b29	-0.18485703
93	0x3dd7b238	0.105320394
94	0x3d52e3a8	0.05148664
95	0x3c3662dd	0.011131969
96	0xbd93f030	-0.072235465
97	0x3e2291ee	0.1587598
98	0x3df085ff	0.11744308
99	0x3debc0d4	0.115113884
100	0xbc1be327	-0.009514607
101	0x3ae0c8a0	0.0017149635
102	0xbcd2a010	-0.02571109
103	0xbd3351da	-0.04377923
104	0x3d15a802	0.036537178
105	0x3b120d1c	0.0022285646
106	0xbc8975c5	-0.01677979
107	0x3da1d510	0.079019666
108	0x3cf0f083	0.02941156
109	0xbd5f2021	-0.054474
110	0x3e38bde0	0.18041182
111	0x3c68d9bd	0.014212069
112	0xbe1d9302	-0.1538811
113	0xbe261a5b	-0.16220991
114	0x3e289ad3	0.16465311
115	0xbe29183d	-0.16513152
116	0x3cec1993	0.028820788
117	0xbd93940c	-0.07205972
118	0xbc86b747	-0.016444815
119	0x3de7a8d5	0.11311499
120	0x3d46c69e	0.04852926
121	0xbb312398	-0.0027029272
122	0x3cd8c211	0.026459726
123	0xbe1a3446	-0.15059003
124	0xbda42629	-0.08015091
125	0x3cdff69a	0.027339268
126	0xbc277763	-0.010221335
127	0xbe04c10c	-0.12964267
128	0xbdec846c	-0.11548695
129	0xbdc31b2f	-0.09526669
130	0xbd1ed700	-0.03877926
131	0xbe26141e	-0.16218612
132	0xbe6848fb	-0.2268409
133	0x3d0f6281	0.03500605
134	0xbd2fc16c	-0.04290907
135	0x3ce842b9	0.028352128
136	0x3de2a256	0.110661194
137	0x3e3b4073	0.18286304
138	0x3c077330	0.008267209
139	0x3da73b04	0.08165553
140	0xbe29a955	-0.16568501
141	0xbdf6b066	-0.12045364
142	0xbe3a2017	-0.18176304
143	0xbd912124	-0.07086399
144	0xbd6a57c3	-0.057212602
145	0xb9ee4446	-0.00045445765
146	0x3cf0a568	0.029375747
147	0x3d8d6bed	0.06905351
148	0x3c17bf1c	0.009261873
149	0x3bd3200e	0.00644303
150	0xbba09a35	-0.0049011954
151	0x3ccaef63	0.024772352
152	0x3e18e229	0.14930023
153	0x3c34ea0b	0.011042128
154	0x3ba94ccc	0.0051666256
155	0xbd60f281	-0.05491877
156	0xbdb2cbda	-0.08730288
157	0x3e28de97	0.16491161
158	0xbcfa253e	-0.030535337
159	0x3cd5240c	0.026018165
160	0x3d183b10	0.0371657
161	0x3e62d498	0.2215141
162	0xbd0243e9	-0.031803045
163	0x3d5cd4f1	0.053914014
164	0xbe069b60	-0.13145208
165	0x3d12d037	0.0358431
166	0x3d12c73b	0.035834532
167	0xbd586891	-0.052834097
168	0x3e0bf587	0.1366788
169	0x3da95c73	0.082695864
170	0x3e06ac45	0.13151653
171	0x3d562bfa	0.052288033
172	0x3d3195ea	0.04335586
173	0x3dc39b60	0.0955112
174	0x3de1b460	0.11020732
175	0xbd4babf3	-0.04972453
176	0x3cbbf104	0.022942074
177	0x3c1be3d6	0.00951477
178	0xbd0b08cf	-0.033943947
179	0xbe255b16	-0.16148028
180	0x3d960dde	0.07326864
181	0x3d8cfbf4	0.06883994
182	0x3d6c8c59	0.057751033
183	0x3e15a4a4	0.14613587
184	0x3d9d7dc4	0.076900035
185	0xbe3c6b9c	-0.18400425
186	0x3d4afbd6	0.049556576
187	0x3ddedaad	0.10881553
188	0x3e1cce51	0.15313078
189	0xbc321e32	-0.010871457
190	0x3dca4eb3	0.09878292
191	0xbd3a46c8	-0.04547766
192	0x3c87816f	0.016541211
193	0x3dc879cf	0.09788858
194	0xbdde7d6a	-0.108637646
195	0x3e26fe6d	0.16307993
196	0xbc293c8c	-0.010329377
197	0xbb930c7d	-0.0044875727
198	0xbd99629d	-0.07489512
199	0xbe1887fb	-0.14895622
200	0xbe604283	-0.21900372
201	0x3d0e425c	0.034731254
202	0xbe0f59ce	-0.13999102
203	0x3d6b78c0	0.057488203
204	0xbd99471a	-0.07484265
205	0xbdab38c4	-0.083604366
206	0x3cc211e3	0.02369017
207	0x3cd7eaa1	0.026356997
208	0xbe36d61a	-0.17855111
209	0xbe07ad4a	-0.13249698
210	0x3d9b22e0	0.07575011
211	0xbdac9cec	-0.08428368
212	0xbe0e36d2	-0.138881
213	0xbd7493d7	-0.059711304
214	0xbd4d8558	-0.050175995
215	0xbe4bc857	-0.19900642
216	0x3d11c13f	0.035584684
217	0x3ca867f0	0.020557374
218	0x3d592438	0.053013057
219	0xbc99ae3d	-0.018759841
220	0x3e02743e	0.12739655
221	0x3d99cc4b	0.07509669
222	0xbe08e0da	-0.13367024
223	0xbc4d9e00	-0.012549877
224	0x3a504cc3	0.00079460087
225	0x3d83f27a	0.06442733
226	0xbbf2548e	-0.0073953336
227	0x3ceb007c	0.028686754
228	0xbea2a62f	-0.31767413
229	0xbd7e1e89	-0.06204084
230	0x3de34a50	0.11098158
231	0x3d90f5c7	0.07078128
232	0x3da73172	0.08163728
233	0xbc9251d6	-0.017861288
234	0x3ceb5d47	0.028731002
235	0x3dcfd572	0.10148133
236	0x3e1e3c83	0.15452771
237	0x3da24584	0.07923415
238	0xbc6ce0ad	-0.014457864
239	0x3da49c4e	0.08037625
240	0x3d5a710a	0.05333046
241	0xbe414ef5	-0.18877776
242	0x3d9a7a9e	0.075429186
243	0xbdab9f8b	-0.0838004
244	0xbc9ff650	-0.01952663
245	0xbdd4c25e	-0.10388635
246	0x3dcc1af0	0.099660754
247	0xbb8681cb	-0.004104828
248	0xbd6d5ebc	-0.057951674
249	0x3e3c7ddc	0.18407387
250	0xbe2a042f	-0.16603158
251	0x3e192dcf	0.14958881
252	0xbd8bb819	-0.06822223
253	0xbc9c3bdd	-0.019071514
254	0xbe18037a	-0.14845076
255	0xbdfb5bc0	-0.12273359

u f4 [20, 1]
0	0x3e0b2d7b	0.13591568
1	0x3bebbc0a	0.007194047
2	0xba6fa096	-0.00091410556
3	0x3de49538	0.11161274
4	0xbdf16a57	-0.11787861
5	0xbd8339b3	-0.0640749
6	0x3cb0c009	0.021575944
7	0xbd87fb14	-0.06639686
8	0x3a050430	0.00050741713
9	0x3ca551b2	0.020180557
10	0xbd38f4c8	-0.045155317
11	0x3bba1730	0.0056790337
12	0x3dfd2d21	0.12362123
13	0x3e51d09e	0.20489737
14	0x3a70f016	0.0009191049
15	0xb94547a4	-0.00018814072
16	0x3d0a7fd1	0.0338133
17	0x3a474c85	0.000760265
18	0x3d20629c	0.03915654
19	0xb8979d59	-7.2295494e-05

bias f4 [40]
0	0x3d8e7060	0.069550276
1	0x3dc66a14	0.096882015
2	0x3e37063d	0.17873473
3	0x3e98000e	0.29687542
4	0x3e1411ec	0.14459962
5	0xbdf0cee4	-0.11758211
6	0xbe4eaaff	-0.20182417
7	0xbd1a2f8e	-0.037643008
8	0xbd94b0e7	-0.07260304
9	0x3e0fcc61	0.14042808
10	0xbb05b479	-0.002040176
11	0xbe145d67	-0.14488755
12	0x3cf5a616	0.029986423
13	0xbda3d5d5	-0.079997696
14	0xbe5c19d7	-0.21494232
15	0xbdd52134	-0.104067236
16	0x3d92dd79	0.07171149
17	0xbe11e486	-0.14247331
18	0x3c95ef72	0.018302653
19	0xbd5c8717	-0.05383977
20	0xbe1159ea	-0.14194456
21	0x3da229c5	0.07918123
22	0xbd44c398	-0.048038095
23	0x3cb3fc6a	0.021970946
24	0xbcd032cc	-0.025414847
25	0xbe249960	-0.16074133
26	0xbd454032	-0.048156925
27	0x3ccfff82	0.02539039
28	0xbd44d029	-0.04805008
29	0x3ce0c693	0.027438438
30	0x3cfbaf77	0.030723317
31	0xbc384183	-0.011246088
32	0xbd12ea20	-0.03586781
33	0xbdbd6e52	-0.092495576
34	0xbe0aa499	-0.13539352
35	0xbd862756	-0.065504715
36	0xbd2ef25d	-0.042711604
37	0xbdb5e35f	-0.08881258
38	0x3dc5a26e	0.09650122
39	0x3df1ee94	0.11813083

weight f4 [40, 40]
0	0xbd460852	-0.04834778
1	0x3e026e76	0.1273745
2	0x3e1cf3c6	0.15327367
3	0xbd89e33a	-0.06732793
4	0x3d8556a7	0.06510668
5	0x3dfbe890	0.12300217
6	0xbd7fac94	-0.062420443
7	0xbdc0cdea	-0.09414275
8	0x3d965bbb	0.07341715
9	0xbc281fad	-0.010261458
10	0x3dcf3591	0.10117639
11	0xbdb1809f	-0.08667111
12	0x3d9c2f47	0.07626205
13	0x3d9670d6	0.073457405
14	0xbd4ccdc7	-0.050000932
15	0x3e262f49	0.16228975
16	0x3ddb50e9	0.10708792
17	0x3e624de2	0.22100022
18	0x3e2e2230	0.17005229
19	0x3e00d8b7	0.1258267
20	0xbd5fc363	-0.054629695
21	0x3d74571f	0.059653398
22	0xbe096c61	-0.1342025
23	0xbd20da83	-0.03927089
24	0x3d0025cd	0.03128605
25	0xbe0e0a93	-0.13871221
26	0xbca9fccf	-0.020750431
27	0x3d9f64de	0.07782911
28	0xbdaaf523	-0.08347537
29	0xbe17a38b	-0.1480848
30	0x3beecbab	0.0072874627
31	0xbdb5affc	-0.08871457
32	0xbe63fbba	-0.22263995
33	0xbd9ded0f	-0.07711231
34	0xbd835726	-0.064131066
35	0x3cfd43a9	0.030916052
36	0xbe12be1f	-0.14330338
37	0x3c461947	0.0120909875
38	0x3c676388	0.014122851
39	0xbdd9adc0	-0.10628843
40	0x3c7e2e4a	0.015513966
41	0xbd37c1f8	-0.044862717
42	0xbd14a682	-0.036291607
43	0x3cc72d4f	0.024313597
44	0xbd51c8e9	-0.051216993
45	0xbdd8a44d	-0.10578213
46	0x3e43ead6	0.19132552
47	0xbd77a157	-0.0604566
48	0xbdf8e23c	-0.12152526
49	0xbd194742	-0.037421472
50	0x3ddf0ea2	0.10891463
51	0x3d9d3091	0.07675279
52	0xbd5778b4	-0.052605346
53	0xbcb62c00	-0.022237778
54	0x3e038d07	0.12846766
55	0xbe011d09	-0.12608732
56	0x3e40fd63	0.1884666
57	0x3d2f686d	0.042824198
58	0x3d8dbda1	0.069209345
59	0xbe091a33	-0.133889
60	0x3cb4eded	0.022086108
61	0x3d6ad782	0.05733443
62	0xbcf367a8	-0.029712513
63	0xbd7cab9d	-0.0616871
64	0xbd33f6c4	-0.043936506
65	0xbd1c3702	-0.038138397
66	0x3d8bba34	0.06822625
67	0x3d8384aa	0.06421788
68	0x3da785e2	0.08179833
69	0xbe62fb64	-0.2216621
70	0x3e80f5a4	0.2518741
71	0x3ddcb8ef	0.10777461
72	0xbe0e2b5d	-0.1388373
73	0x3d8b798e	0.06810294
74	0x3d1e3e2d	0.038633514
75	0xbd27aacc	-0.04093437
76	0x3dec85da	0.11548968
77	0x3db99f0a	0.090635374
78	0x3e07632d	0.13221426
79	0xbd54055e	-0.05176293
80	0x3d8f815f	0.070070975
81	0xbda72248	-0.081608355
82	0x3d2c4b1c	0.042063817
83	0xbe3b70a0	-0.18304682
84	0xbd0ba551	-0.034093205
85	0xbd44f680	-0.048086643
86	0xba51a64b	-0.0007997497
87	0x3e321d19	0.17393912
88	0xbd8cef4c	-0.0688158
89	0xbdb23110	-0.08700764
90	0xbdc0e581	-0.094187744
91	0xbde4c017	-0.11169451
92	0x3be7b636	0.007071282
93	0x3dbf1505	0.09330181
94	0x3ddee96c	0.108843654
95	0x3be44abd	0.0069669173
96	0xbd91ef64	-0.07125738
97	0xbc8657a2	-0.016399208
98	0x3d8c91ef	0.06863772
99	0xbbe7f9ab	-0.0070793233
100	0x3df9f6f4	0.12205306
101	0x3ad277d9	0.0016057446
102	0xbca59e35	-0.02021704
103	0x3d8987ba	0.06715341
104	0x3e13e7bd	0.1444387
105	0xbd3f02c3	-0.046633493
106	0x3d41abe4	0.04728307
107	0x3ca50f77	0.020148976
108	0x3d91f3b0	0.07126558
109	0xbbcc9447	-0.006243262
110	0xbd6d475a	-0.057929374
111	0x3e04268e	0.12905332
112	0x3dd7dad6	0.105397865
113	0x3cf38519	0.029726552
114	0x3e3ee35f	0.18641423
115	0x3c660df7	0.014041415
116	0xbdfc6e8c	-0.12325773
117	0xbe4547c7	-0.19265662
118	0x3db67367	0.0890873
119	0x3cfdfbfb	0.031003943
120	0xbd9c60c8	-0.07635647
121	0xbdf6305d	-0.12020943
122	0x3c09bc81	0.008406759
123	0x3d1df963	0.03856791
124	0x3c92598d	0.017864967
125	0x3e2c0ca6	0.168017
126	0xbb4ee38f	-0.003156874
127	0xbd96eb48	-0.07369095
128	0x3cb7cbbf	0.02243602
129	0x3e21251d	0.15736814
130	0xbd193b9c	-0.037410364
131	0xbcf1e2df	-0.029527126
132	0x3e2299a4	0.15878922
133	0x3c84974d	0.016185427
134	0xbd998589	-0.07496173
135	0x3d90bcb5	0.07067243
136	0xbd9befb0	-0.07614076
137	0xbd9c9aca	-0.07646711
138	0xbd9456a0	-0.07243085
139	0x3cb60b3b	0.022222152
140	0xbde12c21	-0.10994745
141	0x3d17d350	0.037066758
142	0x3d81ff9b	0.06347581
143	0xbdca1013	-0.09866347
144	0xbab08346	-0.0013466857
145	0xbc59fcb0	-0.013304874
146	0x3dad89ae	0.08473526
147	0xbdd05960	-0.10173297
148	0x3cd275f3	0.025691008
149	0xbd8a2aab	-0.067464195
150	0x3d52f1bd	0.05150007
151	0xbddc3763	-0.10752752
152	0x3bea835b	0.007156772
153	0xbde953d3	-0.11392941
154	0xbd777db9	-0.060422633
155	0xbbc1e00c	-0.005916601
156	0xbd0150fc	-0.031571373
157	0x3d3298ca	0.043602742
158	0xbdd9e821	-0.10639978
159	0x3c8fee4f	0.01756969
160	0x3e1cdd72	0.1531885
161	0xbe1a9a91	-0.15098025
162	0x3d712405	0.05887224
163	0xbe5ceb6e	-0.21574184
164	0xbe42fc53	-0.19041567
165	0xbdb226bf	-0.086987965
166	0xbd8fdde0	-0.07024741
167	0xba1a0c68	-0.00058764825
168	0xbc5fb136	-0.01365309
169	0x3c55c11f	0.013046532
170	0x3dffe26f	0.12494361
171	0x3e184352	0.1486943
172	0xbdf43353	-0.11923852
173	0x3d893f48	0.06701523
174	0xbd0f5abe	-0.034998648
175	0x3e17dd33	0.14830475
176	0xbdd015d6	-0.10160415
177	0xbe26ab07	-0.16276179
178	0x3c3d6a7e	0.011561034
179	0xbe0fff6a	-0.14062276
180	0x3d18c58d	0.037297774
181	0xbd2eed44	-0.042706743
182	0xbcd22ae7	-0.025655223
183	0x3d8fa713	0.07014289
184	0xbd2c7f78	-0.04211375
185	0xbc84446f	-0.016145913
186	0xba1a38f2	-0.00058831193
187	0xbd54bcd0	-0.051937878
188	0x3e0c911d	0.13727231
189	0x3c9162f6	0.017747384
190	0xbd4b080b	-0.049568217
191	0xbe05c711	-0.13064219
192	0x3b7fde48	0.0039042402
193	0xbe0ddea9	-0.1385447
194	0x3d63a219	0.05557451
195	0x3ce39bbc	0.02778422
196	0x3dac166a	0.08402713
197	0x3d16bd91	0.03680188
198	0x3e7f7fe4	0.2495113
199	0xbb95e4f4	-0.0045744125
200	0x3cbb7e6c	0.022887431
201	0x3c906087	0.017624153
202	0x3dfe3ace	0.1241356
203	0xbd1465d6	-0.03622993
204	0x3d33bdae	0.043882065
205	0xbd3008f0	-0.042977273
206	0xbd0b3fca	-0.03399638
207	0xbc6129a1	-0.013742835
208	0xbc0ee281	-0.008720995
209	0xbd8fd2f5	-0.07022659
210	0xbca6bdd5	-0.02035419
211	0xbd01f6a4	-0.031729355
212	0xbd168b35	-0.036753852
213	0x3e5dd542	0.21663383
214	0x3c2b4ac7	0.01045484
215	0x3a26c520	0.00063617714
216	0x3d84e316	0.06488626
217	0x3b1e2044	0.0024128119
218	0x3c6056a4	0.013692532
219	0x3cfaee56	0.030631226
220	0xbcc8a9d5	-0.024495045
221	0x3d122497	0.035679426
222	0x3d322e88	0.043501407
223	0x3d152aea	0.03641788
224	0xbe3449e5	-0.17606314
225	0xbd71216e	-0.05886977
226	0xbdbeb874	-0.093125254
227	0x3dc48c8a	0.09597118
228	0x3d554d22	0.052075513
229	0xbd0706cd	-0.03296547
230	0xbcc627d3	-0.024188912
231	0xbc4b5355	-0.012410005
232	0x3c8fe721	0.017566266
233	0xbc8af830	-0.016964048
234	0xbdf19b77	-0.11797231
235	0xbde1900c	-0.11013803
236	0xbe3aec29	-0.1825415
237	0x3d99048f	0.074715726
238	0x3c2e20bb	0.010627921
239	0xbd8f512b	-0.069979034
240	0x3c9cd01f	0.019142209
241	0xbe04b546	-0.12959775
242	0x3d189c8b	0.037258666
243	0x3dd39084	0.103302985
244	0xbd93f8da	-0.07225199
245	0x3e8234ee	0.25431007
246	0xbd8d5f0c	-0.069028944
247	0xbc8615b2	-0.016367767
248	0x3df06d78	0.117396295
249	0xbdc28e8b	-0.09499844
250	0xbc23e5ea	-0.010003546
251	0xbe0d542c	-0.1380164
252	0x3d2303e3	0.03979863
253	0x3de1e0cb	0.11029204
254	0xbd7fc6e2	-0.06244553
255	0xbe420a27	-0.18949185

u f4 [40, 1]
0	0x3df50c98	0.11965293
1	0x3e06d2eb	0.13166396
2	0xbd5f8b63	-0.05457629
3	0xbd6f5b48	-0.058436662
4	0xbddb1929	-0.10698158
5	0x399caf8b	0.00029885428
6	0x3a144d74	0.00056572934
7	0x3d3c4739	0.04596636
8	0xbd957e3b	-0.07299467
9	0x3dd8ded2	0.105893746
10	0xbe043baf	-0.12913392
11	0xbe2aae04	-0.16667944
12	0xbdc79d38	-0.09746784
13	0x3e0690ce	0.13141176
14	0x3dae9e7f	0.085263245
15	0x3bc1d4d4	0.0059152637
16	0xbb3da82c	-0.002893935
17	0x3d9eacd8	0.07747811
18	0xbd966acf	-0.07344591
19	0x3a77bd42	0.0009450504
20	0xbd9fd330	-0.07803953
21	0xbdb4ffa0	-0.08837819
22	0x3e06b757	0.13155876
23	0xbe1c53aa	-0.1526629
24	0xbce91156	-0.02845065
25	0x3d34664b	0.044042867
26	0x3d746ca8	0.059673935
27	0xbc409ce2	-0.011756154
28	0xbc45c0ef	-0.012069925
29	0x3bc3d3ac	0.005976161
30	0x3ae6c435	0.0017606082
31	0xbdc7806e	-0.09741293
32	0x3a1d2483	0.00059945154
33	0xbdaa3e0a	-0.08312614
34	0x3df1c741	0.11805583
35	0x3d4b0530	0.049565494
36	0xbd31b1aa	-0.043382324
37	0xbde1001c	-0.10986349
38	0x3b7c77d2	0.0038523567
39	0xbda08350	-0.07837546

bias f4 [40]
0	0x3dd918f2	0.10600461
1	0x3d225e7b	0.039640885
2	0x3ca63c6a	0.02029248
3	0x3de98ead	0.11404166
4	0xbd556b55	-0.052104313
5	0x3e246da9	0.16057457
6	0xbc76b2df	-0.015057295
7	0x3e2bc75a	0.16775265
8	0xbceee611	-0.029162439
9	0xbdd20201	-0.102542885
10	0xbd5795a7	-0.052632954
11	0x3d9b5828	0.07585174
12	0x3df2b86c	0.11851582
13	0x3d450c4c	0.04810743
14	0x3dcc27f8	0.09968561
15	0x3e67d4ba	0.22639742
16	0x3d9e58b3	0.07731762
17	0x3ce16700	0.027514935
18	0x3d054cb7	0.032543864
19	0xb92e9b00	-0.00016651675
20	0x3eb043e4	0.34426796
21	0xbc41042c	-0.01178078
22	0xbdc45661	-0.09586788
23	0x3d4d6ff6	0.050155602
24	0xbddf822c	-0.109135
25	0xbcf82cb7	-0.03029476
26	0x3e2734c0	0.16328716
27	0x3dbf3a0e	0.09337245
28	0x3d99dc44	0.075127155
29	0xbe3bf508	-0.18355191
30	0x3cb5b8b1	0.022182794
31	0xbb8d8f51	-0.004320063
32	0xbdecd8d9	-0.11564798
33	0x3e04d477	0.12971674
34	0xbd85d005	-0.06533817
35	0x3d3aa43c	0.045566782
36	0x3b4caff2	0.0031232801
37	0x3aec700c	0.0018038764
38	0xbd1cbb9b	-0.038264852
39	0x3e4b154e	0.19832346

weight f4 [40, 1]
0	0x3d81dc40	0.063408375
1	0xbc78b5f2	-0.015180098
2	0x3d49eab1	0.049296085
3	0xbd9df601	-0.07712937
4	0x3e1731fd	0.14765163
5	0x3c40abe5	0.011759733
6	0xbdbcbab1	-0.09215296
7	0x3d23bb1e	0.03997337
8	0xbd3cbdb5	-0.046079356
9	0xbe01c868	-0.12674105
10	0xbe46b770	-0.19405913
11	0x3b0a088e	0.0021062228
12	0x3df88637	0.121349744
13	0x3dfb8617	0.12281435
14	0x3d71ff33	0.059081268
15	0x3d6ab4fb	0.057301503
16	0x3d98d121	0.07461763
17	0xbd9b737a	-0.07590385
18	0x3dbbb9a6	0.09166269
19	0x3eb6743c	0.35635555
20	0x3cea298f	0.02858427
21	0xbde89834	-0.113571554
22	0x3d4cbb28	0.049983174
23	0x3e27e535	0.1639603
24	0xbdeb9600	-0.115032196
25	0x3d1ed7db	0.038780075
26	0x3bcc39a8	0.006232459
27	0xbcfcc2b6	-0.030854564
28	0xbddd80d9	-0.10815591
29	0xbe3b2c4c	-0.18278617
30	0x3df288af	0.118424766
31	0x3dcd29c9	0.100177355
32	0xbd25b62b	-0.040456932
33	0x3da625af	0.08112656
34	0xbe9717ab	-0.29510245
35	0x3e299c43	0.16563515
36	0x3e85efe4	0.26159585
37	0x3d96cb80	0.07363033
38	0x3c030cc6	0.007998651
39	0x3da8ac35	0.08235971

u f4 [40, 1]
0	0x39f8e542	0.00047473056
1	0x3d78f0ce	0.060776524
2	0xbe4713f0	-0.194412
3	0xb951c3b2	-0.00020004695
4	0x3a90abd2	0.0011037535
5	0xbb247072	-0.0025091437
6	0x3d81f570	0.063456416
7	0xbe607c72	-0.21922472
8	0xbd0123e4	-0.03152837
9	0xbc8da8c7	-0.017292393
10	0xbdca5b57	-0.09880703
11	0xbd8d07a2	-0.068862215
12	0x3d425c89	0.04745153
13	0x3df64847	0.120255046
14	0xbcdcbd4f	-0.026945738
15	0xb91dacb4	-0.00015037024
16	0x3d33b1f8	0.043870896
17	0x3dca731c	0.098852366
18	0xbe22cf8d	-0.15899487
19	0xbe0400de	-0.12890956
20	0xbd9dfb47	-0.07713943
21	0xbdbc0c6d	-0.091820575
22	0x3e08c2d6	0.13355574
23	0x3cb0358e	0.021509912
24	0x3d29e9b1	0.04148263
25	0x3bbcfbcb	0.0057673207
26	0xbd666ae9	-0.0562543
27	0xbd8c39a8	-0.068469346
28	0xbd610a20	-0.054941297
29	0xbe0a346f	-0.13496564
30	0xbd328725	-0.043585915
31	0xbda98c38	-0.08278698
32	0xbd58ee9d	-0.052961934
33	0xbdc1b45b	-0.09458228
34	0xbc4a67a4	-0.012353811
35	0xbd57b628	-0.052663952
36	0xbd0b589c	-0.03402005
37	0xbe7b4d29	-0.24541153
38	0x3def82b1	0.11694849
39	0x3d83f598	0.06443328
